…
2024-11-17 08:08:43,697 - INFO - Training data shapes - X: (7152, 60, 1), y: (7152,)
2024-11-17 08:08:43,697 - INFO - Validation data shapes - X: (1788, 60, 1), y: (1788,)
2024-11-17 08:08:43,697 - INFO - Tuning hyperparameters with a subset of data...
2024-11-17 08:08:43,743 - INFO - LSTM model summary:
2024-11-17 08:08:43,746 - INFO - Model: "sequential"
┏━━━━━━━━━━━━━━━━━━━━━━━━━━━━━━━━━━━━━━┳━━━━━━━━━━━━━━━━━━━━━━━━━━━━━┳━━━━━━━━━━━━━━━━━┓
┃ Layer (type)                         ┃ Output Shape                ┃         Param # ┃
┡━━━━━━━━━━━━━━━━━━━━━━━━━━━━━━━━━━━━━━╇━━━━━━━━━━━━━━━━━━━━━━━━━━━━━╇━━━━━━━━━━━━━━━━━┩
│ lstm (LSTM)                          │ (None, 60, 182)             │         133,952 │
├──────────────────────────────────────┼─────────────────────────────┼─────────────────┤
│ batch_normalization                  │ (None, 60, 182)             │             728 │
│ (BatchNormalization)                 │                             │                 │
├──────────────────────────────────────┼─────────────────────────────┼─────────────────┤
│ dropout (Dropout)                    │ (None, 60, 182)             │               0 │
├──────────────────────────────────────┼─────────────────────────────┼─────────────────┤
│ lstm_1 (LSTM)                        │ (None, 182)                 │         265,720 │
├──────────────────────────────────────┼─────────────────────────────┼─────────────────┤
│ batch_normalization_1                │ (None, 182)                 │             728 │
│ (BatchNormalization)                 │                             │                 │
├──────────────────────────────────────┼─────────────────────────────┼─────────────────┤
│ dense (Dense)                        │ (None, 16)                  │           2,928 │
├──────────────────────────────────────┼─────────────────────────────┼─────────────────┤
│ dense_1 (Dense)                      │ (None, 1)                   │              17 │
└──────────────────────────────────────┴─────────────────────────────┴─────────────────┘
 Total params: 404,073 (1.54 MB)
 Trainable params: 403,345 (1.54 MB)
 Non-trainable params: 728 (2.84 KB)

2024-11-17 08:08:48,301 - INFO - LSTM model summary:
2024-11-17 08:08:48,304 - INFO - Model: "sequential_1"
┏━━━━━━━━━━━━━━━━━━━━━━━━━━━━━━━━━━━━━━┳━━━━━━━━━━━━━━━━━━━━━━━━━━━━━┳━━━━━━━━━━━━━━━━━┓
┃ Layer (type)                         ┃ Output Shape                ┃         Param # ┃
┡━━━━━━━━━━━━━━━━━━━━━━━━━━━━━━━━━━━━━━╇━━━━━━━━━━━━━━━━━━━━━━━━━━━━━╇━━━━━━━━━━━━━━━━━┩
│ lstm_2 (LSTM)                        │ (None, 60, 116)             │          54,752 │
├──────────────────────────────────────┼─────────────────────────────┼─────────────────┤
│ batch_normalization_2                │ (None, 60, 116)             │             464 │
│ (BatchNormalization)                 │                             │                 │
├──────────────────────────────────────┼─────────────────────────────┼─────────────────┤
│ dropout_1 (Dropout)                  │ (None, 60, 116)             │               0 │
├──────────────────────────────────────┼─────────────────────────────┼─────────────────┤
│ lstm_3 (LSTM)                        │ (None, 116)                 │         108,112 │
├──────────────────────────────────────┼─────────────────────────────┼─────────────────┤
│ batch_normalization_3                │ (None, 116)                 │             464 │
│ (BatchNormalization)                 │                             │                 │
├──────────────────────────────────────┼─────────────────────────────┼─────────────────┤
│ dense_2 (Dense)                      │ (None, 16)                  │           1,872 │
├──────────────────────────────────────┼─────────────────────────────┼─────────────────┤
│ dense_3 (Dense)                      │ (None, 1)                   │              17 │
└──────────────────────────────────────┴─────────────────────────────┴─────────────────┘
 Total params: 165,681 (647.19 KB)
 Trainable params: 165,217 (645.38 KB)
 Non-trainable params: 464 (1.81 KB)

2024-11-17 08:08:52,198 - INFO - LSTM model summary:
2024-11-17 08:08:52,201 - INFO - Model: "sequential_2"
┏━━━━━━━━━━━━━━━━━━━━━━━━━━━━━━━━━━━━━━┳━━━━━━━━━━━━━━━━━━━━━━━━━━━━━┳━━━━━━━━━━━━━━━━━┓
┃ Layer (type)                         ┃ Output Shape                ┃         Param # ┃
┡━━━━━━━━━━━━━━━━━━━━━━━━━━━━━━━━━━━━━━╇━━━━━━━━━━━━━━━━━━━━━━━━━━━━━╇━━━━━━━━━━━━━━━━━┩
│ lstm_4 (LSTM)                        │ (None, 60, 67)              │          18,492 │
├──────────────────────────────────────┼─────────────────────────────┼─────────────────┤
│ batch_normalization_4                │ (None, 60, 67)              │             268 │
│ (BatchNormalization)                 │                             │                 │
├──────────────────────────────────────┼─────────────────────────────┼─────────────────┤
│ dropout_2 (Dropout)                  │ (None, 60, 67)              │               0 │
├──────────────────────────────────────┼─────────────────────────────┼─────────────────┤
│ lstm_5 (LSTM)                        │ (None, 60, 65)              │          34,580 │
├──────────────────────────────────────┼─────────────────────────────┼─────────────────┤
│ batch_normalization_5                │ (None, 60, 65)              │             260 │
│ (BatchNormalization)                 │                             │                 │
├──────────────────────────────────────┼─────────────────────────────┼─────────────────┤
│ dropout_3 (Dropout)                  │ (None, 60, 65)              │               0 │
├──────────────────────────────────────┼─────────────────────────────┼─────────────────┤
│ lstm_6 (LSTM)                        │ (None, 133)                 │         105,868 │
├──────────────────────────────────────┼─────────────────────────────┼─────────────────┤
│ batch_normalization_6                │ (None, 133)                 │             532 │
│ (BatchNormalization)                 │                             │                 │
├──────────────────────────────────────┼─────────────────────────────┼─────────────────┤
│ dense_4 (Dense)                      │ (None, 16)                  │           2,144 │
├──────────────────────────────────────┼─────────────────────────────┼─────────────────┤
│ dense_5 (Dense)                      │ (None, 1)                   │              17 │
└──────────────────────────────────────┴─────────────────────────────┴─────────────────┘
 Total params: 162,161 (633.44 KB)
 Trainable params: 161,631 (631.37 KB)
 Non-trainable params: 530 (2.07 KB)

2024-11-17 08:08:56,525 - INFO - LSTM model summary:
2024-11-17 08:08:56,527 - INFO - Model: "sequential_3"
┏━━━━━━━━━━━━━━━━━━━━━━━━━━━━━━━━━━━━━━┳━━━━━━━━━━━━━━━━━━━━━━━━━━━━━┳━━━━━━━━━━━━━━━━━┓
┃ Layer (type)                         ┃ Output Shape                ┃         Param # ┃
┡━━━━━━━━━━━━━━━━━━━━━━━━━━━━━━━━━━━━━━╇━━━━━━━━━━━━━━━━━━━━━━━━━━━━━╇━━━━━━━━━━━━━━━━━┩
│ lstm_7 (LSTM)                        │ (None, 60, 47)              │           9,212 │
├──────────────────────────────────────┼─────────────────────────────┼─────────────────┤
│ batch_normalization_7                │ (None, 60, 47)              │             188 │
│ (BatchNormalization)                 │                             │                 │
├──────────────────────────────────────┼─────────────────────────────┼─────────────────┤
│ dropout_4 (Dropout)                  │ (None, 60, 47)              │               0 │
├──────────────────────────────────────┼─────────────────────────────┼─────────────────┤
│ lstm_8 (LSTM)                        │ (None, 219)                 │         233,892 │
├──────────────────────────────────────┼─────────────────────────────┼─────────────────┤
│ batch_normalization_8                │ (None, 219)                 │             876 │
│ (BatchNormalization)                 │                             │                 │
├──────────────────────────────────────┼─────────────────────────────┼─────────────────┤
│ dense_6 (Dense)                      │ (None, 16)                  │           3,520 │
├──────────────────────────────────────┼─────────────────────────────┼─────────────────┤
│ dense_7 (Dense)                      │ (None, 1)                   │              17 │
└──────────────────────────────────────┴─────────────────────────────┴─────────────────┘
 Total params: 247,705 (967.60 KB)
 Trainable params: 247,173 (965.52 KB)
 Non-trainable params: 532 (2.08 KB)

2024-11-17 08:09:00,735 - INFO - LSTM model summary:
2024-11-17 08:09:00,737 - INFO - Model: "sequential_4"
┏━━━━━━━━━━━━━━━━━━━━━━━━━━━━━━━━━━━━━━┳━━━━━━━━━━━━━━━━━━━━━━━━━━━━━┳━━━━━━━━━━━━━━━━━┓
┃ Layer (type)                         ┃ Output Shape                ┃         Param # ┃
┡━━━━━━━━━━━━━━━━━━━━━━━━━━━━━━━━━━━━━━╇━━━━━━━━━━━━━━━━━━━━━━━━━━━━━╇━━━━━━━━━━━━━━━━━┩
│ lstm_9 (LSTM)                        │ (None, 60, 133)             │          71,820 │
├──────────────────────────────────────┼─────────────────────────────┼─────────────────┤
│ batch_normalization_9                │ (None, 60, 133)             │             532 │
│ (BatchNormalization)                 │                             │                 │
├──────────────────────────────────────┼─────────────────────────────┼─────────────────┤
│ dropout_5 (Dropout)                  │ (None, 60, 133)             │               0 │
├──────────────────────────────────────┼─────────────────────────────┼─────────────────┤
│ lstm_10 (LSTM)                       │ (None, 133)                 │         142,044 │
├──────────────────────────────────────┼─────────────────────────────┼─────────────────┤
│ batch_normalization_10               │ (None, 133)                 │             532 │
│ (BatchNormalization)                 │                             │                 │
├──────────────────────────────────────┼─────────────────────────────┼─────────────────┤
│ dense_8 (Dense)                      │ (None, 16)                  │           2,144 │
├──────────────────────────────────────┼─────────────────────────────┼─────────────────┤
│ dense_9 (Dense)                      │ (None, 1)                   │              17 │
└──────────────────────────────────────┴─────────────────────────────┴─────────────────┘
 Total params: 217,089 (848.00 KB)
 Trainable params: 216,557 (845.93 KB)
 Non-trainable params: 532 (2.08 KB)

2024-11-17 08:09:05,306 - INFO - LSTM model summary:
2024-11-17 08:09:05,308 - INFO - Model: "sequential_5"
┏━━━━━━━━━━━━━━━━━━━━━━━━━━━━━━━━━━━━━━┳━━━━━━━━━━━━━━━━━━━━━━━━━━━━━┳━━━━━━━━━━━━━━━━━┓
┃ Layer (type)                         ┃ Output Shape                ┃         Param # ┃
┡━━━━━━━━━━━━━━━━━━━━━━━━━━━━━━━━━━━━━━╇━━━━━━━━━━━━━━━━━━━━━━━━━━━━━╇━━━━━━━━━━━━━━━━━┩
│ lstm_11 (LSTM)                       │ (None, 60, 214)             │         184,896 │
├──────────────────────────────────────┼─────────────────────────────┼─────────────────┤
│ batch_normalization_11               │ (None, 60, 214)             │             856 │
│ (BatchNormalization)                 │                             │                 │
├──────────────────────────────────────┼─────────────────────────────┼─────────────────┤
│ dropout_6 (Dropout)                  │ (None, 60, 214)             │               0 │
├──────────────────────────────────────┼─────────────────────────────┼─────────────────┤
│ lstm_12 (LSTM)                       │ (None, 234)                 │         420,264 │
├──────────────────────────────────────┼─────────────────────────────┼─────────────────┤
│ batch_normalization_12               │ (None, 234)                 │             936 │
│ (BatchNormalization)                 │                             │                 │
├──────────────────────────────────────┼─────────────────────────────┼─────────────────┤
│ dense_10 (Dense)                     │ (None, 16)                  │           3,760 │
├──────────────────────────────────────┼─────────────────────────────┼─────────────────┤
│ dense_11 (Dense)                     │ (None, 1)                   │              17 │
└──────────────────────────────────────┴─────────────────────────────┴─────────────────┘
 Total params: 610,729 (2.33 MB)
 Trainable params: 609,833 (2.33 MB)
 Non-trainable params: 896 (3.50 KB)

2024-11-17 08:09:11,834 - INFO - LSTM model summary:
2024-11-17 08:09:11,836 - INFO - Model: "sequential_6"
┏━━━━━━━━━━━━━━━━━━━━━━━━━━━━━━━━━━━━━━┳━━━━━━━━━━━━━━━━━━━━━━━━━━━━━┳━━━━━━━━━━━━━━━━━┓
┃ Layer (type)                         ┃ Output Shape                ┃         Param # ┃
┡━━━━━━━━━━━━━━━━━━━━━━━━━━━━━━━━━━━━━━╇━━━━━━━━━━━━━━━━━━━━━━━━━━━━━╇━━━━━━━━━━━━━━━━━┩
│ lstm_13 (LSTM)                       │ (None, 60, 121)             │          59,532 │
├──────────────────────────────────────┼─────────────────────────────┼─────────────────┤
│ batch_normalization_13               │ (None, 60, 121)             │             484 │
│ (BatchNormalization)                 │                             │                 │
├──────────────────────────────────────┼─────────────────────────────┼─────────────────┤
│ dropout_7 (Dropout)                  │ (None, 60, 121)             │               0 │
├──────────────────────────────────────┼─────────────────────────────┼─────────────────┤
│ lstm_14 (LSTM)                       │ (None, 194)                 │         245,216 │
├──────────────────────────────────────┼─────────────────────────────┼─────────────────┤
│ batch_normalization_14               │ (None, 194)                 │             776 │
│ (BatchNormalization)                 │                             │                 │
├──────────────────────────────────────┼─────────────────────────────┼─────────────────┤
│ dense_12 (Dense)                     │ (None, 16)                  │           3,120 │
├──────────────────────────────────────┼─────────────────────────────┼─────────────────┤
│ dense_13 (Dense)                     │ (None, 1)                   │              17 │
└──────────────────────────────────────┴─────────────────────────────┴─────────────────┘
 Total params: 309,145 (1.18 MB)
 Trainable params: 308,515 (1.18 MB)
 Non-trainable params: 630 (2.46 KB)

2024-11-17 08:09:16,838 - INFO - LSTM model summary:
2024-11-17 08:09:16,841 - INFO - Model: "sequential_7"
┏━━━━━━━━━━━━━━━━━━━━━━━━━━━━━━━━━━━━━━┳━━━━━━━━━━━━━━━━━━━━━━━━━━━━━┳━━━━━━━━━━━━━━━━━┓
┃ Layer (type)                         ┃ Output Shape                ┃         Param # ┃
┡━━━━━━━━━━━━━━━━━━━━━━━━━━━━━━━━━━━━━━╇━━━━━━━━━━━━━━━━━━━━━━━━━━━━━╇━━━━━━━━━━━━━━━━━┩
│ lstm_15 (LSTM)                       │ (None, 60, 229)             │         211,596 │
├──────────────────────────────────────┼─────────────────────────────┼─────────────────┤
│ batch_normalization_15               │ (None, 60, 229)             │             916 │
│ (BatchNormalization)                 │                             │                 │
├──────────────────────────────────────┼─────────────────────────────┼─────────────────┤
│ dropout_8 (Dropout)                  │ (None, 60, 229)             │               0 │
├──────────────────────────────────────┼─────────────────────────────┼─────────────────┤
│ lstm_16 (LSTM)                       │ (None, 229)                 │         420,444 │
├──────────────────────────────────────┼─────────────────────────────┼─────────────────┤
│ batch_normalization_16               │ (None, 229)                 │             916 │
│ (BatchNormalization)                 │                             │                 │
├──────────────────────────────────────┼─────────────────────────────┼─────────────────┤
│ dense_14 (Dense)                     │ (None, 16)                  │           3,680 │
├──────────────────────────────────────┼─────────────────────────────┼─────────────────┤
│ dense_15 (Dense)                     │ (None, 1)                   │              17 │
└──────────────────────────────────────┴─────────────────────────────┴─────────────────┘
 Total params: 637,569 (2.43 MB)
 Trainable params: 636,653 (2.43 MB)
 Non-trainable params: 916 (3.58 KB)

2024-11-17 08:09:21,899 - INFO - LSTM model summary:
2024-11-17 08:09:21,901 - INFO - Model: "sequential_8"
┏━━━━━━━━━━━━━━━━━━━━━━━━━━━━━━━━━━━━━━┳━━━━━━━━━━━━━━━━━━━━━━━━━━━━━┳━━━━━━━━━━━━━━━━━┓
┃ Layer (type)                         ┃ Output Shape                ┃         Param # ┃
┡━━━━━━━━━━━━━━━━━━━━━━━━━━━━━━━━━━━━━━╇━━━━━━━━━━━━━━━━━━━━━━━━━━━━━╇━━━━━━━━━━━━━━━━━┩
│ lstm_17 (LSTM)                       │ (None, 60, 187)             │         141,372 │
├──────────────────────────────────────┼─────────────────────────────┼─────────────────┤
│ batch_normalization_17               │ (None, 60, 187)             │             748 │
│ (BatchNormalization)                 │                             │                 │
├──────────────────────────────────────┼─────────────────────────────┼─────────────────┤
│ dropout_9 (Dropout)                  │ (None, 60, 187)             │               0 │
├──────────────────────────────────────┼─────────────────────────────┼─────────────────┤
│ lstm_18 (LSTM)                       │ (None, 251)                 │         440,756 │
├──────────────────────────────────────┼─────────────────────────────┼─────────────────┤
│ batch_normalization_18               │ (None, 251)                 │           1,004 │
│ (BatchNormalization)                 │                             │                 │
├──────────────────────────────────────┼─────────────────────────────┼─────────────────┤
│ dense_16 (Dense)                     │ (None, 16)                  │           4,032 │
├──────────────────────────────────────┼─────────────────────────────┼─────────────────┤
│ dense_17 (Dense)                     │ (None, 1)                   │              17 │
└──────────────────────────────────────┴─────────────────────────────┴─────────────────┘
 Total params: 587,929 (2.24 MB)
 Trainable params: 587,053 (2.24 MB)
 Non-trainable params: 876 (3.42 KB)

2024-11-17 08:09:27,953 - INFO - LSTM model summary:
2024-11-17 08:09:27,955 - INFO - Model: "sequential_9"
┏━━━━━━━━━━━━━━━━━━━━━━━━━━━━━━━━━━━━━━┳━━━━━━━━━━━━━━━━━━━━━━━━━━━━━┳━━━━━━━━━━━━━━━━━┓
┃ Layer (type)                         ┃ Output Shape                ┃         Param # ┃
┡━━━━━━━━━━━━━━━━━━━━━━━━━━━━━━━━━━━━━━╇━━━━━━━━━━━━━━━━━━━━━━━━━━━━━╇━━━━━━━━━━━━━━━━━┩
│ lstm_19 (LSTM)                       │ (None, 60, 77)              │          24,332 │
├──────────────────────────────────────┼─────────────────────────────┼─────────────────┤
│ batch_normalization_19               │ (None, 60, 77)              │             308 │
│ (BatchNormalization)                 │                             │                 │
├──────────────────────────────────────┼─────────────────────────────┼─────────────────┤
│ dropout_10 (Dropout)                 │ (None, 60, 77)              │               0 │
├──────────────────────────────────────┼─────────────────────────────┼─────────────────┤
│ lstm_20 (LSTM)                       │ (None, 77)                  │          47,740 │
├──────────────────────────────────────┼─────────────────────────────┼─────────────────┤
│ batch_normalization_20               │ (None, 77)                  │             308 │
│ (BatchNormalization)                 │                             │                 │
├──────────────────────────────────────┼─────────────────────────────┼─────────────────┤
│ dense_18 (Dense)                     │ (None, 16)                  │           1,248 │
├──────────────────────────────────────┼─────────────────────────────┼─────────────────┤
│ dense_19 (Dense)                     │ (None, 1)                   │              17 │
└──────────────────────────────────────┴─────────────────────────────┴─────────────────┘
 Total params: 73,953 (288.88 KB)
 Trainable params: 73,645 (287.68 KB)
 Non-trainable params: 308 (1.20 KB)

2024-11-17 08:09:31,347 - INFO - Hyperparameter importance plot saved as hyperparameter_importance_20241117_080931.png
2024-11-17 08:09:32,300 - INFO - Best hyperparameters: {'n_lstm_layers': 2, 'lstm_units_0': 187, 'lstm_units_1': 251, 'dropout_rate': 0.17244027056672664, 'learning_rate': 0.005820022679950624, 'batch_size': 64}
2024-11-17 08:09:32,300 - INFO - Best validation loss: 0.031209910288453102
2024-11-17 08:09:32,344 - INFO - LSTM model summary:
2024-11-17 08:09:32,347 - INFO - Model: "sequential_10"
┏━━━━━━━━━━━━━━━━━━━━━━━━━━━━━━━━━━━━━━┳━━━━━━━━━━━━━━━━━━━━━━━━━━━━━┳━━━━━━━━━━━━━━━━━┓
┃ Layer (type)                         ┃ Output Shape                ┃         Param # ┃
┡━━━━━━━━━━━━━━━━━━━━━━━━━━━━━━━━━━━━━━╇━━━━━━━━━━━━━━━━━━━━━━━━━━━━━╇━━━━━━━━━━━━━━━━━┩
│ lstm_21 (LSTM)                       │ (None, 60, 187)             │         141,372 │
├──────────────────────────────────────┼─────────────────────────────┼─────────────────┤
│ batch_normalization_21               │ (None, 60, 187)             │             748 │
│ (BatchNormalization)                 │                             │                 │
├──────────────────────────────────────┼─────────────────────────────┼─────────────────┤
│ dropout_11 (Dropout)                 │ (None, 60, 187)             │               0 │
├──────────────────────────────────────┼─────────────────────────────┼─────────────────┤
│ lstm_22 (LSTM)                       │ (None, 251)                 │         440,756 │
├──────────────────────────────────────┼─────────────────────────────┼─────────────────┤
│ batch_normalization_22               │ (None, 251)                 │           1,004 │
│ (BatchNormalization)                 │                             │                 │
├──────────────────────────────────────┼─────────────────────────────┼─────────────────┤
│ dense_20 (Dense)                     │ (None, 16)                  │           4,032 │
├──────────────────────────────────────┼─────────────────────────────┼─────────────────┤
│ dense_21 (Dense)                     │ (None, 1)                   │              17 │
└──────────────────────────────────────┴─────────────────────────────┴─────────────────┘
 Total params: 587,929 (2.24 MB)
 Trainable params: 587,053 (2.24 MB)
 Non-trainable params: 876 (3.42 KB)

2024-11-17 08:20:38,584 - INFO - Training history plot saved as training_history_20241117_082038.png
2024-11-17 08:20:40,631 - INFO - Validation Metrics - MSE: 0.00, MAE: 0.01, RMSE: 0.03
2024-11-17 08:20:40,687 - INFO - Loss plot saved as lstm_loss_20241117_082040.png
…
